saved_models/trained_model.pth (torch, 248972 bytes, 10 tensors)

conv1.weight f4 [6, 3, 5, 5]
0	0xbd2d3ca5	-0.042294163
1	0x3d42cbde	0.047557704
2	0xbcb281f8	-0.02179049
3	0x3e019f2a	0.12658373
4	0xbd4031db	-0.046922546
5	0xbc94e9a9	-0.018177824
6	0x3e0f7a61	0.14011528
7	0x3e99d3e2	0.30044466
8	0xbcc7ba4d	-0.024380827
9	0xbde3bea2	-0.11120345
10	0x3e09be1f	0.13451432
11	0x3e9c9203	0.30580148
12	0x3e103ce8	0.14085734
13	0xbdeefb6e	-0.1166905
14	0xbecc9b76	-0.39962357
15	0x3ec3ac67	0.3821747
16	0x3e871641	0.26384166
17	0xbd97ad4a	-0.07406099
18	0xbeb5cad0	-0.35506296
19	0xbe2a8fc8	-0.1665641
20	0x3e85025a	0.25978357
21	0x3e14e0f2	0.14538935
22	0xbea49d48	-0.32151246
23	0xbe4d9e1e	-0.20079848
24	0xbda9489e	-0.08265804
25	0xbe3364f3	-0.17518978
26	0xbe5a8854	-0.21341068
27	0x3e25f343	0.16206078
28	0x3dc98a15	0.0984079
29	0x3e0e21d1	0.13880087
30	0xbeab45f2	-0.33451802
31	0xbcc89d6d	-0.024489129
32	0x3e477984	0.19479948
33	0x3dd6c5eb	0.104869686
34	0xbdc129f9	-0.09431834
35	0x3c2e5265	0.010639762
36	0x3e31f4da	0.1737856
37	0x3e2e005b	0.16992323
38	0xbd5225fc	-0.051305756
39	0xbd8cbfea	-0.06872542
40	0x3e5ba008	0.21447766
41	0x3e0f4ca5	0.13994081
42	0xbe3134fb	-0.17305367
43	0xbe030c5f	-0.12797688
44	0x3d83261c	0.06403753
45	0x3e65286c	0.22378701
46	0x3cf719a5	0.030163595
47	0xbe5f9135	-0.21832736
48	0x3e0281f2	0.12744883
49	0x3e21561c	0.15755504
50	0xbe8c365c	-0.27385223
51	0xbd807e5b	-0.062741004
52	0x3e8d76f4	0.27629817
53	0x3e931dd7	0.28733703
54	0x3dfc619a	0.123233035
55	0xbe89a3dd	-0.2688283
56	0x3e2e8705	0.17043693
57	0x3eb80f78	0.35949302
58	0x3e0db6bd	0.1383924
59	0xbdb6b635	-0.08921472
60	0xbce981ca	-0.028504271
61	0x3e9ea6df	0.30986688
62	0x3e2cd0fc	0.16876596
63	0xbe3ed528	-0.18636
64	0xbdcfb2e2	-0.10141541
65	0x3e91f4ae	0.28506988
66	0x3e96adf7	0.294296
67	0xbe498d62	-0.1968284
68	0xbe51a906	-0.20474634
69	0x3cdb5862	0.026775543
70	0x3e6253bc	0.22102255
71	0x3e1cace5	0.15300329
72	0xbeaeda71	-0.34151033
73	0xbdede88a	-0.11616619
74	0x3dc8c686	0.0980349
75	0xbf141f70	-0.5786047
76	0xbdc710b7	-0.09719985
77	0xbf41a057	-0.75635284
78	0x3e1146aa	0.14187112
79	0xbcd06daa	-0.025442917
80	0xbe9a71e4	-0.30165017
81	0x3df583fd	0.119880654
82	0xbeff38bd	-0.49847975
83	0x3e4cf2d9	0.20014514
84	0xbe0fcee1	-0.14043762
85	0xbdc11130	-0.094271064
86	0xbceaade5	-0.028647372
87	0xbe94ebe8	-0.29086232
88	0x3e85c738	0.26128554
89	0x3e020f43	0.12701134
90	0x3e421f97	0.18957363
91	0x3e82b64e	0.25529712
92	0x3e2ca14f	0.1685841
93	0x3f03252b	0.5122859
94	0x3eb77e25	0.35838428
95	0xbc5b294b	-0.013376544
96	0x3e9075bc	0.28214824
97	0x3d2640a3	0.040588986
98	0x3ec9101a	0.39270097
99	0x3e880af4	0.26570857
100	0x3d8a2d87	0.06746965
101	0x3ecd2eea	0.40074855
102	0xbe9c7f31	-0.3056579
103	0x3e808503	0.2510148
104	0x3c983642	0.01858056
105	0xbdf32384	-0.118720084
106	0x3eae5a94	0.3405348
107	0xbe73cee1	-0.23809387
108	0x3e990dbd	0.29893294
109	0xbd362aa0	-0.044474244
110	0xbeadd08b	-0.33948168
111	0x3dca5b02	0.098806396
112	0xbec49341	-0.38393596
113	0xbe1d1b52	-0.15342453
114	0xbe817634	-0.25285494
115	0xbd3dfd3d	-0.046384085
116	0x3d132647	0.035925176
117	0xbe0df66d	-0.13863535
118	0xbd1f1db8	-0.0388467
119	0xbe07dab1	-0.13267018
120	0xbe8b3989	-0.27192333
121	0x3d3224e2	0.043492205
122	0xbecdf09b	-0.4022263
123	0xbe57b2fa	-0.21064368
124	0xbe39afa2	-0.18133405
125	0x3e86bb5d	0.26314822
126	0x3f431a4b	0.76211995
127	0x3d034471	0.032047693
128	0x3f0be2ab	0.5464274
129	0x3c9a6a53	0.018849527
130	0x3e13e2d4	0.14441997
131	0x3f27f686	0.6561054
132	0x3ca8f8a3	0.020626372
133	0x3ea3cef3	0.31993827
134	0xbdcc474c	-0.09974536
135	0xbe84c984	-0.25934994
136	0x3c279296	0.01022782
137	0xbef48608	-0.47758508
138	0xbe7e3e63	-0.24828486
139	0xbeb51755	-0.35369363
140	0xbe064f48	-0.13116181
141	0x3e354d3b	0.17705242
142	0xbde057c1	-0.10954238
143	0xbd849589	-0.06473834
144	0xbdb64fd4	-0.08901945
145	0xbd06f2ba	-0.032946326
146	0x3dce8887	0.10084634
147	0xbe4a4ca7	-0.19755803
148	0x3c880795	0.016605178
149	0xbe4a6ecd	-0.1976883
150	0x3e6c27f7	0.2306212
151	0x3dad03e7	0.0844801
152	0x3e489d78	0.1959132
153	0x3dfa9874	0.122361094
154	0x3d86e3d4	0.065864235
155	0x3e45c837	0.19314657
156	0xbdd9a600	-0.10627365
157	0xbccb15b2	-0.024790619
158	0x3e6d9706	0.23202142
159	0x3ddbf1cb	0.10739478
160	0x3e696777	0.22793375
161	0x3b9a90e5	0.00471698
162	0xbeedd1d5	-0.46449152
163	0xbd47048e	-0.048588328
164	0x3ea56249	0.32301548
165	0x3e5a61ae	0.21326324
166	0x3eb72aa2	0.35774714
167	0xbf455148	-0.7707715
168	0xbf0b814d	-0.5449417
169	0x3daf4f29	0.085600205
170	0x3e9a7ef0	0.3017497
171	0x3ed53f40	0.41649818
172	0xbec2cd6a	-0.38047343
173	0xbeb70773	-0.3574787
174	0xbe2c617b	-0.16834061
175	0xbe92608a	-0.28589278
176	0xbe70d098	-0.23517072
177	0x3e452050	0.19250607
178	0x3e39d1c2	0.18146423
179	0xbdc264d3	-0.09491887
180	0xbe450485	-0.19240005
181	0xbe9199c1	-0.28437617
182	0xbe6dff99	-0.23242034
183	0x3d8ddb57	0.069266014
184	0x3d8dc55a	0.069224074
185	0x3e801898	0.25018764
186	0x3e1dd7c0	0.15414333
187	0xbf15f0f5	-0.58570796
188	0xbcb08ffb	-0.02155303
189	0x3eaaf3fa	0.33389264
190	0x3e5674d8	0.2094301
191	0x3eb43e26	0.35203665
192	0xbf24bb4a	-0.6434828
193	0xbe98fca8	-0.2988026
194	0x3e98d8dc	0.2985295
195	0x3ed79aaa	0.42110187
196	0x3f0669d3	0.52505225
197	0xbdb15704	-0.08659175
198	0xbe35fb1e	-0.17771575
199	0x3c92bf0a	0.01791336
200	0xbe8587f5	-0.2608029
201	0xbe34819d	-0.17627569
202	0x3d057583	0.03258277
203	0xbdab439a	-0.08362503
204	0xbe949081	-0.29016498
205	0xbd1a1167	-0.037614252
206	0xbe711f4e	-0.23547098
207	0xbda34143	-0.07971432
208	0x3d752acd	0.05985527
209	0x3d7388d8	0.059456676
210	0x3e4dca5d	0.20096727
211	0x3dcd0a73	0.10011759
212	0xbf0fba68	-0.5614381
213	0xbe4a7509	-0.19771208
214	0x3eaff02b	0.3436292
215	0x3e9a3df9	0.30125406
216	0x3ef41a81	0.4767647
217	0xbf350fda	-0.7072731
218	0xbede11b6	-0.43372887
219	0x3e43a627	0.19106351
220	0x3ef6a70c	0.48174322
221	0x3ee8ad71	0.45444825
222	0xbe4f3193	-0.20233755
223	0xbe8d3f28	-0.27587247
224	0xbe12628d	-0.14295407
225	0xbe276171	-0.16345765
226	0xbe362407	-0.17787181
227	0xbe05929c	-0.13044208
228	0x3cc39c59	0.023878263
229	0xbc6d9de3	-0.014502975
230	0xbc49f118	-0.012325548
231	0xbd90ea1b	-0.07075902
232	0xbeade16f	-0.33961055
233	0xbe5be5b5	-0.21474345
234	0xbdba9474	-0.091103464
235	0x3d8e448c	0.06946668
236	0xbda52778	-0.08064169
237	0xbdabb99f	-0.08385014
238	0xbd178b52	-0.0369981
239	0xbe0573f6	-0.13032517
240	0x3de93c71	0.113884814
241	0x3e203d47	0.15648375
242	0x3e5ea62c	0.21743077
243	0x3d5bc815	0.05365761
244	0xbdb353be	-0.08756207
245	0x3dd8b09c	0.105805606
246	0x3e426fff	0.18988036
247	0x3e8f5dc3	0.28001222
248	0x3e729d80	0.23692894
249	0x3e435e6e	0.19078991
250	0xbcf7ab51	-0.030233057
251	0xbcd06635	-0.025439361
252	0xbe3b76d5	-0.1830705
253	0x3d17d923	0.037072312
254	0x3e366eb3	0.17815666
255	0x3dbf0800	0.09327698

conv1.bias f4 [6]
0	0xbea261f2	-0.3171535
1	0xbe9c98bb	-0.30585274
2	0xbed152a3	-0.4088336
3	0xbe81c424	-0.25344956
4	0xbf240051	-0.6406298
5	0xbf53e1f7	-0.8276667

conv2.weight f4 [16, 6, 5, 5]
0	0xbd29a826	-0.041420124
1	0x3e6f307e	0.23358342
2	0x3e6ffaea	0.2343556
3	0x3e84f3fe	0.259674
4	0xbd902e88	-0.07040125
5	0x3d7f0990	0.06226498
6	0x3e3bde52	0.18346527
7	0x3e551b86	0.2081128
8	0x3c40ff80	0.011779666
9	0xbe5b6d4e	-0.21428415
10	0x3e70bf7b	0.23510544
11	0x3c8bc568	0.017061904
12	0x3cea0b6e	0.028569903
13	0xbd86dc28	-0.0658496
14	0x3ae77e77	0.0017661591
15	0x3dbedf0b	0.09319886
16	0x3ce1ae4f	0.027548937
17	0x3da4173e	0.080122456
18	0x3c91952e	0.01777133
19	0x3c6f5a29	0.014608898
20	0xbd89f791	-0.06736673
21	0x3cfad395	0.030618468
22	0x3b0417fb	0.0020155895
23	0x3d9fd4bb	0.07804247
24	0x3e11354c	0.14180487
25	0x3e330163	0.17480998
26	0xbc533ac2	-0.012892427
27	0xbda9fe3e	-0.08300446
28	0xbd5b8b76	-0.053599797
29	0xbd4f2739	-0.050574515
30	0x3be85b61	0.0070909713
31	0xbdeb679d	-0.11494372
32	0xbcfd5fc7	-0.03092946
33	0xbd9214ca	-0.071328714
34	0xbdaf2f6b	-0.08553966
35	0x3c4feb2e	0.012690349
36	0x3d19b1f8	0.03752324
37	0xbd1984f5	-0.037480313
38	0xbb5b563c	-0.0033468148
39	0xbce528ef	-0.02797362
40	0xbd3c0209	-0.04590038
41	0xbd6df7fa	-0.058097817
42	0x3c4b5a6e	0.012411697
43	0xbc7704dd	-0.015076843
44	0x3cf66df7	0.030081732
45	0xbd6e1da4	-0.058133736
46	0xbda07e51	-0.07836593
47	0xbcf8b3d5	-0.030359188
48	0xbddc38ad	-0.107529975
49	0xbe02de97	-0.12780224
50	0xbc668e6d	-0.014072043
51	0x3d04ad1f	0.032391664
52	0xbc2ca58c	-0.010537516
53	0x3dc4ab04	0.09602931
54	0xbc2c299a	-0.010507965
55	0xbd69a245	-0.057039518
56	0xbd078423	-0.033085
57	0x3c025f71	0.007957325
58	0x3d495ec4	0.04916264
59	0xbde8bc65	-0.113640584
60	0x3df1a159	0.11798353
61	0x3bff94e4	0.0077997316
62	0x3d64c051	0.05584747
63	0xbd410768	-0.047126204
64	0xbe329afc	-0.17441934
65	0x3e6b657e	0.22987935
66	0xbdcb1720	-0.0991652
67	0x3d0b8ef1	0.034071866
68	0x3cfdfa4b	0.031003138
69	0xbdd77760	-0.10520816
70	0xbda16879	-0.07881255
71	0xbdd268dd	-0.10273907
72	0xbdb041a2	-0.086062685
73	0xbdab74bc	-0.08371875
74	0x3c4d0596	0.012513539
75	0x3d6b43f4	0.057437852
76	0xbe07e40d	-0.13270588
77	0xbe3283e8	-0.1743313
78	0xbe482e2a	-0.1954886
79	0xbdc06d07	-0.09395795
80	0x3e33169d	0.17489095
81	0xbc5cd373	-0.013478148
82	0xbe572935	-0.21011813
83	0xbda69dfe	-0.08135603
84	0xbd9c6f29	-0.076383896
85	0xbd37ac32	-0.044841953
86	0xbd574e3b	-0.05256484
87	0xbb9f5b5b	-0.0048631853
88	0x3c2a66ab	0.0104004545
89	0x3d8e5f27	0.069517426
90	0xbd899a97	-0.06718939
91	0xbdf2aa58	-0.11848897
92	0x3be294d4	0.0069147144
93	0xbd2960cd	-0.041352082
94	0x3d24ad8c	0.04020457
95	0xbddad2f1	-0.10684765
96	0xbe2f33fd	-0.17109676
97	0xbda39881	-0.07988072
98	0x3db533e0	0.08847785
99	0x3ca3c92d	0.019993389
100	0xbe1d922a	-0.15387788
101	0x3b7a68e6	0.0038209497
102	0xbdac0296	-0.08398931
103	0x3de6aeec	0.112638324
104	0x3d9a656a	0.075388744
105	0x3d0c70c2	0.03428722
106	0x3e042b5b	0.12907164
107	0x3c12c884	0.008958939
108	0xbd719ec3	-0.058989298
109	0xbd7a16c9	-0.061056886
110	0x3dde9fc8	0.108703196
111	0xbcca021e	-0.024659213
112	0xbd6ca5e6	-0.0577754
113	0xbe3e45fa	-0.18581381
114	0xbc1774ab	-0.009244124
115	0x3bb1e4c5	0.005428883
116	0xbc0cbdd0	-0.008590177
117	0xbd9fb34d	-0.07797871
118	0xbdb5d56c	-0.088785976
119	0x3da2c3a4	0.07947472
120	0x3d0428e2	0.03226555
121	0xbcd86126	-0.026413511
122	0x3c6ef988	0.01458586
123	0x3c849626	0.016184878
124	0xbd779e61	-0.060453776
125	0x3d360290	0.044436038
126	0x3d9ac04b	0.07556208
127	0xbcf9c92a	-0.03049143
128	0x3d71fd1e	0.059079282
129	0x3dd50c09	0.10402686
130	0x3a6c751a	0.0009020135
131	0x3db17d85	0.08666519
132	0xbdaa29b7	-0.08308738
133	0x3d14658b	0.03622965
134	0xbd24ca90	-0.04023224
135	0xbd552b78	-0.05204341
136	0xbdbcb84a	-0.09214838
137	0xb9cfb7e5	-0.0003961913
138	0xbbca4e15	-0.006173859
139	0xbd28cf1a	-0.041213132
140	0xbda61d10	-0.08111012
141	0xbca2d125	-0.019875119
142	0x3de664a9	0.11249668
143	0x3dd5fdec	0.104488224
144	0x3d256e0f	0.040388163
145	0x3e26639f	0.1624894
146	0xbe7e1960	-0.24814367
147	0x3de75976	0.1129636
148	0x3d07198f	0.03298336
149	0xbbcf8d6b	-0.006333997
150	0x3d5ca6a5	0.053869862
151	0xbd7e9f4d	-0.06216364
152	0xbd84c433	-0.064827345
153	0xbe3eed57	-0.18645225
154	0xbe47f072	-0.19525316
155	0x3cc891ee	0.024483647
156	0xbdebfaf2	-0.115224734
157	0xbe0a924f	-0.13532375
158	0xbdf12893	-0.11775317
159	0xbdeb5733	-0.11491241
160	0x3d8168fa	0.06318851
161	0xbd8aad77	-0.06771367
162	0xbd5a9933	-0.05336876
163	0xbdcff82b	-0.10154756
164	0xbe3cbbe5	-0.18431051
165	0x3e5d4ce4	0.21611363
166	0x3daf8341	0.085699566
167	0xbba86977	-0.0051395255
168	0xbda056e9	-0.07829077
169	0xbe2bd99e	-0.16782233
170	0xbd2c4566	-0.04205837
171	0xbcb6d8b3	-0.022320127
172	0xbd2b5fa7	-0.041839268
173	0xbd73ce2b	-0.05952279
174	0xbdd125aa	-0.10212262
175	0x3e3e1c79	0.18565549
176	0xbd02ae04	-0.031904235
177	0x3d106628	0.035253674
178	0xbda86b9e	-0.08223651
179	0xbc209cbf	-0.009802996
180	0x3e5df62b	0.21675937
181	0x3de6348b	0.112404905
182	0x3e3405c5	0.17580326
183	0x3e8811ac	0.26575983
184	0x3e6518c3	0.22372727
185	0x3db0f4d3	0.086404465
186	0x3dd68a41	0.104755886
187	0x3e2714f4	0.16316587
188	0x3e85f320	0.26162052
189	0x3e48c7ee	0.19607517
190	0xbd4c1f10	-0.04983431
191	0xbe1900c3	-0.14941697
192	0x3a03b3dc	0.00050240546
193	0x3cf88e25	0.030341217
194	0xbcf1def9	-0.029525267
195	0xbd987c48	-0.0744558
196	0xbd7f92d4	-0.062395886
197	0xbd598d1e	-0.053113095
198	0xbd5046fa	-0.05084894
199	0x3d7f79bc	0.062371954
200	0x3ca2a8c6	0.019855868
201	0xbde09f28	-0.10967857
202	0xba396df7	-0.0007073576
203	0xbda362b3	-0.0797781
204	0x3ba5d98c	0.005061334
205	0xbe0588f3	-0.13040523
206	0xbeb419ec	-0.35176027
207	0xbe2443bc	-0.16041464
208	0x3b5489f3	0.0032430857
209	0xbe0b7bf7	-0.13621508
210	0x3d643139	0.055711005
211	0xbe1ae048	-0.15124619
212	0xbe1b3620	-0.15157366
213	0xbe658509	-0.2241403
214	0xbe81f424	-0.25381577
215	0x3eaccb93	0.33749065
216	0x3d90dd84	0.07073501
217	0x3dcbc5ea	0.099498585
218	0xbbdb79a3	-0.00669785
219	0xbdfde388	-0.12396914
220	0x3e4ecd0e	0.2019541
221	0x3e5d4297	0.21607433
222	0x3e0124e5	0.1261173
223	0xbd1d1b92	-0.03835637
224	0x3d7ac3cd	0.061221886
225	0x3e3455c1	0.17610838
226	0x3db4ddab	0.08831342
227	0x3beba7df	0.0071916427
228	0xbd41e16d	-0.047334123
229	0x3d4b6cc8	0.04966429
230	0xbbdb4f8c	-0.0066928323
231	0x3db5b37f	0.08872127
232	0x3e50acd7	0.20378433
233	0x3d711cf0	0.058865488
234	0x3e272c32	0.16325453
235	0xbe402766	-0.1876503
236	0xbd453513	-0.04814632
237	0x3ab5882f	0.001384979
238	0xbdc2439a	-0.0948555
239	0x3c9b7991	0.018978866
240	0xbe297a4a	-0.16550556
241	0xbe1eddd3	-0.15514307
242	0xbe7effa5	-0.24902208
243	0xbe25ebd7	-0.16203247
244	0xbe16e0be	-0.1473417
245	0xbe26e2a4	-0.16297394
246	0xbd316796	-0.043311678
247	0xbdc6c5c0	-0.097056866
248	0xbe221dec	-0.15831727
249	0xbe23649e	-0.15956351
250	0x3d6e2886	0.058144115
251	0xbc8dd958	-0.017315552
252	0xbd697875	-0.056999642
253	0x3cea19db	0.028576782
254	0x3cf9f31c	0.030511431
255	0x3cfa849f	0.030580817

conv2.bias f4 [16]
0	0xbe86aa00	-0.26301575
1	0xbdafbb5c	-0.08580658
2	0x3ec35aac	0.38155115
3	0x3f743de9	0.9540697
4	0xbe8f7cb1	-0.2802482
5	0xbd5fed8b	-0.054669898
6	0xbe7b3563	-0.24532084
7	0xbf83c459	-1.0294296
8	0x3f31ea1f	0.69497865
9	0x3e88e6c4	0.2673856
10	0xbe21e7bf	-0.1581106
11	0xbd573958	-0.05254492
12	0xbd45ef3e	-0.048323862
13	0x3ddfc071	0.10925377
14	0x3f0e5238	0.55594206
15	0xbeab25b8	-0.33427215

fc1.weight f4 [120, 400]
0	0xbe038d7a	-0.12846938
1	0x39aa95e0	0.00032536592
2	0x3b9268dc	0.0044680666
3	0x3cadeac3	0.021230107
4	0x3d80df5b	0.06292602
5	0xbd6b140d	-0.05739217
6	0xbcb16a42	-0.021657113
7	0x3ca250b5	0.019813875
8	0xbcaee11a	-0.021347571
9	0x3d21c0bd	0.03949045
10	0xbdaf14c6	-0.08548884
11	0xbd1bde8a	-0.038054027
12	0xbc48e416	-0.012261411
13	0xbd93b9df	-0.072131865
14	0x3c2db3a7	0.0106019145
15	0xbd93554e	-0.07194005
16	0x3d38da64	0.04513015
17	0xbc19503b	-0.009357507
18	0xbd8d7f1a	-0.06909008
19	0xbcd385d6	-0.025820654
20	0x3ca87cfb	0.020567408
21	0x3d1ad480	0.037800312
22	0xbdcc998f	-0.099902265
23	0xbc5524d7	-0.013009272
24	0xbc7adf15	-0.015311976
25	0x3dbb83b7	0.09155982
26	0x3dd99fd0	0.10626185
27	0x3d33bfda	0.043884136
28	0x3dc93e3e	0.09826325
29	0x3d904981	0.0704527
30	0xbbabc12a	-0.005241533
31	0xbc962a76	-0.018330794
32	0xbb2c42ed	-0.0026285008
33	0xbcddbf2d	-0.027068699
34	0x3d7b0b87	0.06129029
35	0xbcde1d19	-0.027113484
36	0xbd30cdf8	-0.043165177
37	0xbbeb43f3	-0.007179731
38	0xbdae49c0	-0.085101604
39	0x3d42cc08	0.04755786
40	0x3c32ba8d	0.010908735
41	0x3cb8842a	0.022523958
42	0x3d1009ed	0.035165716
43	0xbd3dc2f4	-0.0463285
44	0x3d6c8c2e	0.057750873
45	0x3cda7daa	0.02667125
46	0x3d2856da	0.041098453
47	0xbd62dc42	-0.055385835
48	0xbd65b681	-0.056082252
49	0xbd2e58b6	-0.04256507
50	0x3c9e150c	0.019297145
51	0x3d210e11	0.039320055
52	0xbc3b90cd	-0.011448097
53	0x3aa579cc	0.0012624799
54	0xbd1952d1	-0.037432496
55	0x3b824ccf	0.0039764415
56	0xbcdc5243	-0.026894694
57	0xbd146535	-0.03622933
58	0xbd562f65	-0.052291293
59	0xbcbb6a0e	-0.02287772
60	0x3dae4350	0.085089326
61	0x3d864b03	0.06557276
62	0xbcd8ef62	-0.026481334
63	0xbc8d933b	-0.017282119
64	0x3ccc7f64	0.024963088
65	0x3d2edfa6	0.042693757
66	0x3cbba9d9	0.022908138
67	0xbd85ff4c	-0.06542835
68	0x3cd6b8db	0.026211193
69	0xbd81f578	-0.063456476
70	0x3dc0d746	0.0941606
71	0x3c10fce4	0.008849356
72	0xbd3a11f0	-0.045427263
73	0x3dbc10fa	0.091829255
74	0x3d4748af	0.0486533
75	0x3ca0b14b	0.01961579
76	0xbbc98400	-0.006149769
77	0x3d5a9942	0.053368814
78	0x3c175e8b	0.009238849
79	0x3c1eb4c7	0.009686655
80	0x3d3386e1	0.043829802
81	0xbcb743a0	-0.022371113
82	0xbd54af5c	-0.05192505
83	0xbcfceb31	-0.030873867
84	0x3c4d0aed	0.012514812
85	0x3d53108c	0.051529452
86	0x3d9888c3	0.0744796
87	0xbd8959a4	-0.06706551
88	0x3d38cd6f	0.04511779
89	0x3d1739c1	0.036920313
90	0x3cec4dd8	0.028845713
91	0x3d6a940a	0.057270087
92	0x3d065aa9	0.032801304
93	0x3d39bd86	0.04534676
94	0x3ca55c45	0.0201856
95	0x3cbdfbce	0.023191359
96	0x3ce7299b	0.028218081
97	0x3cbf1981	0.02332759
98	0xbd6478e4	-0.055779353
99	0xbd6b29e5	-0.057413
100	0x3b77128e	0.0037700268
101	0x3d2d6ec0	0.042341948
102	0xbbd0698f	-0.00636024
103	0x3ca1c385	0.019746551
104	0xbdd25eab	-0.10271963
105	0xbd819bdb	-0.06328555
106	0xbd2ffa61	-0.04296339
107	0x3d490d2a	0.04908482
108	0x3c3c6175	0.011497845
109	0x3c5d8e7d	0.013522741
110	0xbc4f49ec	-0.012651902
111	0xbd2004e0	-0.03906715
112	0x3ba85294	0.005136797
113	0x3ce7297a	0.02821802
114	0xbd9bb158	-0.07602185
115	0x3d375ff3	0.04476924
116	0x3d1c1cbc	0.03811334
117	0x3c9b66d0	0.018969923
118	0xbce28984	-0.027653463
119	0x3c9545a9	0.018221693
120	0xbd8e3612	-0.06943907
121	0xbd1ec2ee	-0.03876012
122	0xbdfe4170	-0.12414825
123	0xbd9b4e61	-0.07583309
124	0xbd2ae5c6	-0.041723035
125	0xbba21e1e	-0.004947438
126	0x3cac8ffe	0.021064755
127	0x3d0633de	0.03276431
128	0xbccd85aa	-0.02508815
129	0xbadac285	-0.0016690051
130	0x3d85024a	0.06494577
131	0xbcb65f61	-0.022262277
132	0xbc30843c	-0.010773715
133	0x3d636433	0.05551548
134	0x3d4c9f52	0.049956627
135	0x3b743ec5	0.003726886
136	0xbd4f5361	-0.050616626
137	0xbaccdc00	-0.001562953
138	0xbd125b3d	-0.035731543
139	0xbc29e007	-0.010368354
140	0x3cf5b0d9	0.029991554
141	0x3daf0b52	0.08547081
142	0x3d500273	0.050783586
143	0x3bfed7b0	0.007777177
144	0x3c88cea8	0.016700104
145	0x3cea6a69	0.028615193
146	0x3d2eac51	0.042644802
147	0xbcc91eec	-0.024550878
148	0xbd31acc0	-0.043377638
149	0x3bd01b90	0.006350942
150	0x3d66974c	0.05629663
151	0x3c066488	0.008202679
152	0xbd74e7b6	-0.05979129
153	0x3ce645e4	0.028109498
154	0x3d0c7ca2	0.034298547
155	0x3ce060bd	0.027389878
156	0xbc0cee6a	-0.008601764
157	0x3cb60c8b	0.022222778
158	0x3bd1ebbd	0.006406276
159	0xbd1d4dc9	-0.03840426
160	0xbccecdf7	-0.025244696
161	0xbcd3d9fa	-0.025860775
162	0x3d05faee	0.03271001
163	0x3bea3323	0.0071472093
164	0x3cb39d95	0.021925727
165	0xbce1eac5	-0.027577767
166	0xbd3b3754	-0.045707062
167	0x3c30aad6	0.010782918
168	0xbc29fe98	-0.010375641
169	0x3c9f072a	0.019412596
170	0xbcbfce67	-0.02341385
171	0x3a168d25	0.0005743078
172	0xbc9099bb	-0.01765143
173	0x3c8860fe	0.016647812
174	0xbc709887	-0.014684803
175	0xbd16bf0e	-0.036803298
176	0xbd9c3cc8	-0.076287806
177	0x3d267005	0.040634174
178	0xbc1bed57	-0.009517035
179	0x3aa57a40	0.0012624934
180	0xbd477c44	-0.048702493
181	0xbd08f62c	-0.033437893
182	0x3c89bda6	0.016814064
183	0x3c122bd5	0.008921583
184	0xbcd20987	-0.025639309
185	0xbd3d4224	-0.046205655
186	0x3d721c72	0.05910916
187	0xbc8f7a27	-0.017514301
188	0xbc33251c	-0.0109341405
189	0xbc8631dd	-0.016381199
190	0xbd7c0ef8	-0.061537713
191	0x3c791dbd	0.015204844
192	0xbda207db	-0.079116546
193	0xbd64475a	-0.05573211
194	0xbd99ca87	-0.07509332
195	0xbd82c719	-0.06385631
196	0xbdd7d05f	-0.105377905
197	0xbdcc719c	-0.09982607
198	0xbd866e39	-0.06563992
199	0xbd49cc1c	-0.04926692
200	0xbd79793f	-0.060906645
201	0xbd62ea25	-0.05539908
202	0xbd2d16cd	-0.042258073
203	0x3d8681b6	0.06567709
204	0x3dc690ed	0.09695611
205	0xbd8b0986	-0.06788926
206	0xbdab2728	-0.08357078
207	0x3d3aff3c	0.045653567
208	0x3b4b6aee	0.0031039077
209	0x3dbd21e0	0.09234977
210	0x3d3608ec	0.044442102
211	0x3ac0f9f1	0.0014722926
212	0x3d25ea0f	0.04050642
213	0xbba05fd8	-0.004894238
214	0x3dbf64b7	0.09345382
215	0x3cc28511	0.023745092
216	0x3cb301f3	0.021851515
217	0xbc715aa4	-0.014731083
218	0x3cb2fffc	0.021850578
219	0x3d78bc51	0.060726468
220	0xbcdbeba4	-0.02684576
221	0x3d32a0a3	0.043610226
222	0xbd03117a	-0.03199909
223	0xbd80d34e	-0.06290303
224	0x3caf70bf	0.021416066
225	0x3d06d594	0.032918528
226	0x3cb32bb2	0.021871421
227	0xbd0e666e	-0.034765653
228	0xbd4b2f6e	-0.04960578
229	0x3d135a05	0.03597452
230	0xbc0114a9	-0.007878461
231	0xbd54776b	-0.0518717
232	0xbd318a62	-0.043344863
233	0xbc97cba9	-0.01852973
234	0x3c1e19fc	0.00964975
235	0xbd997cda	-0.07494517
236	0xbd91d1cc	-0.07120094
237	0x3c3abaab	0.011397044
238	0xbace5653	-0.0015742279
239	0x3c58ae3f	0.013225137
240	0xbd44206c	-0.047882482
241	0xbd1b4f22	-0.037917264
242	0x3c2a71d2	0.010403113
243	0xbd209e4f	-0.039213475
244	0xbced5087	-0.028969062
245	0xbd4c4e4a	-0.04987935
246	0x3c2dc74d	0.010606599
247	0x3d27c3f1	0.04095835
248	0x3d6a92a7	0.057268765
249	0xbcbe66b0	-0.023242325
250	0x3c8897de	0.016673978
251	0x3b65cde2	0.0035065343
252	0x3cfea1e7	0.03108306
253	0xbcf9f3f0	-0.030511826
254	0xbc714154	-0.014725048
255	0x3b267a4b	0.0025402482

fc1.bias f4 [120]
0	0x3b36acca	0.0027873986
1	0xbcb67bf0	-0.022275895
2	0xbd1ac210	-0.03778273
3	0x3c450bce	0.01202674
4	0xbc07dc1d	-0.008292225
5	0x3e1c18ba	0.15243807
6	0x3d4b1d3c	0.049588427
7	0xbc0f25d0	-0.008737043
8	0x3ccc0ecc	0.0249094
9	0x3ca2dd91	0.019881042
10	0xbd1e89a3	-0.03870548
11	0x3cc36750	0.023852974
12	0x3e1b9183	0.15192227
13	0xbb2d1d8a	-0.0026415312
14	0x3e3c87fd	0.1841125
15	0xbc360375	-0.011109223
16	0xbd651e28	-0.055936962
17	0xbdf4b689	-0.11948878
18	0xbd457abf	-0.048212763
19	0x3db2ce44	0.08730748
20	0xbd30255d	-0.043004382
21	0xbc6dfecb	-0.014526079
22	0xbcea960e	-0.028636005
23	0xbc7e3183	-0.015514734
24	0xbd3fcfb0	-0.046828926
25	0x3dd74c96	0.105126545
26	0x3a4b2138	0.00077487854
27	0x3e0dd464	0.13850552
28	0x3c0e483e	0.008684216
29	0xbc351272	-0.011051761
30	0xbd128931	-0.035775367
31	0x3c3ab70e	0.011396183
32	0x3d48f2d9	0.049059723
33	0x3c0d7421	0.008633644
34	0x3cdf12d5	0.02723066
35	0xbce56414	-0.028001823
36	0x3d43954c	0.047749802
37	0xbc9d0d66	-0.019171428
38	0xbd3c8408	-0.046024352
39	0xbd804c6a	-0.06264575
40	0x3c4bb27b	0.01243269
41	0xbc6c11da	-0.014408553
42	0xbbe89af7	-0.0070985514
43	0x3db8b9c0	0.09019804
44	0xbd825059	-0.06362981
45	0x3dfd38f4	0.123643786
46	0x3d09a787	0.033607032
47	0xbcfcc896	-0.030857366
48	0x3d880674	0.06641856
49	0xbbcd087a	-0.006257114
50	0x3ce33e0f	0.027739553
51	0x3d5f6b63	0.05454577
52	0x3d511220	0.051042676
53	0x3c51fc32	0.012816476
54	0x3cc766d3	0.024341023
55	0xbbd084dd	-0.006363495
56	0xbc0c93de	-0.008580176
57	0x3e14bf3f	0.1452608
58	0x3d2eff4b	0.042723935
59	0xbe0729f5	-0.13199599
60	0x3d9528b4	0.07283154
61	0xba09483d	-0.00052368996
62	0x3c07d153	0.008289653
63	0x3e06f0b0	0.13177752
64	0x3c9a4f5f	0.018836675
65	0x3d442e53	0.04789574
66	0xba1876a9	-0.00058160216
67	0x3da05d6a	0.07830317
68	0x3bbae7dc	0.0057039093
69	0xbddcaf47	-0.10775619
70	0xbc909814	-0.017650642
71	0x3e0b6a03	0.13614659
72	0xbc2b3411	-0.010449425
73	0x3c98b38f	0.018640308
74	0xbc6466f0	-0.013940558
75	0xbd1358f7	-0.035973515
76	0xbd43296e	-0.047646932
77	0x3db7b6e1	0.08970428
78	0x3cd9f419	0.026605653
79	0xbd37b0ff	-0.04484653
80	0xbd61bd06	-0.055111907
81	0x3d39589d	0.045250524
82	0x3cdd4e9b	0.027015021
83	0xbc476aa5	-0.012171422
84	0xbd8ad8b2	-0.067796126
85	0x3ddaefbf	0.10690259
86	0xbd8c6917	-0.06855982
87	0x3cf7ca22	0.030247752
88	0x3e61265d	0.2198729
89	0x3c20fbf0	0.009825692
90	0x3e2fc97e	0.17166707
91	0x3cb76d25	0.022390911
92	0xbd2021b9	-0.03909466
93	0xbd853c83	-0.06505682
94	0xbc547468	-0.012967207
95	0xbcc0397a	-0.023464907
96	0xbc29fa52	-0.010374622
97	0x3d127038	0.03575155
98	0xbd58a22b	-0.05288903
99	0xbc4d96f5	-0.012548198
100	0x3bddda1c	0.0067703854
101	0xbd553226	-0.05204978
102	0xbd619c62	-0.05508078
103	0x3c0e1a3d	0.008673248
104	0x3bd02692	0.006352254
105	0xbd2308b4	-0.03980322
106	0x3c9e5ff0	0.019332856
107	0x3e0f042b	0.13966434
108	0xbd49a44f	-0.049228963
109	0xbbce398c	-0.006293481
110	0xbbc94ede	-0.006143435
111	0x3cdf2ffe	0.027244564
112	0xbcce2df1	-0.025168391
113	0xbd511b39	-0.051051352
114	0x3ccdc959	0.025120424
115	0x3d25ea9a	0.040506937
116	0xbd02ba23	-0.031915795
117	0xbdded785	-0.10880951
118	0x3b845d7e	0.0040394654
119	0xbd031465	-0.03200187

fc2.weight f4 [84, 120]
0	0xbd723fbb	-0.05914281
1	0x3bc2628f	0.0059321593
2	0x3d32ae79	0.04362342
3	0xbd8f1fa6	-0.06988458
4	0x3d88355b	0.06650802
5	0xbd36b180	-0.04460287
6	0x3d82271a	0.06355114
7	0x3d178787	0.036994483
8	0x3d242661	0.040075663
9	0xbca9a918	-0.020710513
10	0xbda7b24d	-0.08188305
11	0xbadf6751	-0.001704434
12	0xbdd09f23	-0.10186603
13	0x3d2dfe92	0.042479105
14	0xbd5a723d	-0.053331602
15	0x3db052ad	0.08609519
16	0x3bf0c47d	0.007347642
17	0x3cb86ef9	0.022513853
18	0x3d14e6a6	0.036352776
19	0xbd9b285b	-0.075760566
20	0x3dbd3120	0.092378855
21	0xbdaf5468	-0.08561021
22	0x3c8db0b7	0.017296178
23	0xbc53d141	-0.012928308
24	0xbd315928	-0.043297917
25	0x3d635365	0.055499453
26	0x3d47ede7	0.048810866
27	0xbd1fdb96	-0.039027773
28	0xbd843055	-0.06454531
29	0x3909e325	0.00013149956
30	0x3db2737d	0.08713434
31	0xbda1a520	-0.07892823
32	0xbdb1438e	-0.08655463
33	0x3c6f1f46	0.0145948585
34	0xbc2213be	-0.009892402
35	0x3daa9706	0.08329587
36	0x3d4f4d24	0.050610676
37	0x3b61cd28	0.0034454558
38	0x3bfb3a5c	0.007666869
39	0x3d0d8c87	0.034557845
40	0xbd99e8db	-0.07515117
41	0xbd3d1cb1	-0.04616994
42	0x3d7e8666	0.06213989
43	0x3c2b371c	0.010450151
44	0xbd4e5935	-0.050378043
45	0x3c98e0f7	0.01866196
46	0xbbd70284	-0.006561579
47	0xbd17ac63	-0.037029635
48	0xbda932c4	-0.08261636
49	0xbbfd5b33	-0.007731819
50	0xbd1238ca	-0.03569869
51	0x3ce90710	0.02844575
52	0xbd9dea57	-0.077107124
53	0xbd234d61	-0.039868716
54	0xbbc3a160	-0.005970165
55	0x3d531a1e	0.05153858
56	0xbd2c63fb	-0.042087536
57	0xbd84b34c	-0.06479511
58	0x3d58541d	0.05281459
59	0xbcc9694c	-0.024586342
60	0x3d10ed33	0.03538246
61	0x3b784503	0.003788293
62	0x3d91cb1a	0.07118817
63	0x3d09dd08	0.033658057
64	0x3d7f41b6	0.062318526
65	0x3c26a498	0.010171078
66	0x3d806d02	0.062707916
67	0xbce6e195	-0.028183738
68	0x3d8f361b	0.06992742
69	0xbd97e8db	-0.074174605
70	0x3da43fb2	0.080199614
71	0x3d92084b	0.07130488
72	0x3d17c5bc	0.03705381
73	0x3c71eac7	0.014765448
74	0xbd9f785c	-0.077866286
75	0x3d5ff96a	0.05468122
76	0xbd824fbb	-0.06362864
77	0xbc936bd2	-0.017995749
78	0x3d4e142e	0.050312214
79	0x3dbaa600	0.09113693
80	0x3c2278ee	0.009916527
81	0xbc30c43f	-0.010788976
82	0x3d41476b	0.04718725
83	0xbd03a9cc	-0.032144353
84	0xbdb4e717	-0.088331394
85	0xbd109187	-0.035295036
86	0x3da9dd4d	0.08294163
87	0x3caf90d9	0.021431373
88	0xbd81b649	-0.06333596
89	0x3d7bb291	0.06144959
90	0x3ccc06d8	0.024905607
91	0xbd499f2d	-0.049224067
92	0xbd72e931	-0.05930442
93	0x3c23369e	0.009961752
94	0x3c68c09a	0.014206076
95	0xbd6f23ff	-0.058383938
96	0xbd464464	-0.048405066
97	0xbbdc54fa	-0.006723997
98	0xbc6fc7ed	-0.014635068
99	0x3d85f7a8	0.06541377
100	0xbd4fb2ea	-0.050707735
101	0xbcd00654	-0.025393642
102	0xbc898f0e	-0.016791847
103	0xbca0fcb0	-0.01965174
104	0x3cecc79f	0.02890378
105	0x3db429c7	0.08797031
106	0xbd861dd2	-0.065486565
107	0x3b50d1ce	0.0031863335
108	0xbd31a880	-0.043373585
109	0x3c0614b8	0.008183651
110	0x3c9f27a1	0.019428076
111	0x3ca738e1	0.020412864
112	0xbd9bd6e3	-0.07609346
113	0x3d095634	0.033529475
114	0x3cc1392c	0.023586832
115	0x3d9cd07f	0.07656955
116	0x3cd0df03	0.025496965
117	0x3d9f11ab	0.07767042
118	0xbca80d61	-0.020514192
119	0x3d96f7a7	0.07371455
120	0x3d6727cb	0.056434434
121	0x3b930bae	0.0044874763
122	0xbd8193c9	-0.06327016
123	0x3d52a5f4	0.051427796
124	0xbc26a66b	-0.010171513
125	0x3d810535	0.06299821
126	0x3de4e53e	0.11176537
127	0xbd38d38b	-0.045123618
128	0x3c910e4d	0.017707014
129	0xbd08114b	-0.033219617
130	0xbdc277ce	-0.09495507
131	0x3c49bb20	0.0123126805
132	0x3d2150d5	0.039383728
133	0x3a6c84cf	0.00090224756
134	0x3cf9a250	0.030472904
135	0xbd495363	-0.04915179
136	0xbcd26335	-0.025682071
137	0x3d2759f2	0.040857263
138	0xbd994b3d	-0.07485054
139	0x3d82326c	0.063572735
140	0xbc0cf466	-0.008603191
141	0x3d2ffe36	0.042967044
142	0x3dada38e	0.08478461
143	0xbcde1293	-0.027108466
144	0xbd4af108	-0.04954627
145	0x3de5d948	0.11223084
146	0xbda155de	-0.07877706
147	0xbc8370f5	-0.016045073
148	0x3c627e6f	0.013824089
149	0x3c8c5c04	0.01713372
150	0x39771ecf	0.00023567233
151	0x3d117d08	0.03551963
152	0x3ccf1ddd	0.025282795
153	0xbbf3c19c	-0.0074388515
154	0x3da716fa	0.08158679
155	0x3c4cbdd8	0.012496434
156	0x3cbd5853	0.023113405
157	0x3cb261e1	0.021775188
158	0xbc5be359	-0.013420903
159	0x3d5fd8ff	0.054650303
160	0xbd434e50	-0.047682106
161	0xbda68d33	-0.081324
162	0x3c11d0d0	0.008899882
163	0xbbd0575e	-0.006358071
164	0xbdad321b	-0.084568225
165	0x3cc15c27	0.023603512
166	0x3c2086cd	0.009797764
167	0x3c81834c	0.015809678
168	0x3dd2c648	0.102917254
169	0x3d5266e2	0.051367648
170	0x3cc24ebe	0.023719188
171	0x3d91fa46	0.07127814
172	0x3ce7e8bf	0.028309224
173	0x3d4f901d	0.050674547
174	0x3d06f7e0	0.032951236
175	0x3dfc04b1	0.12305582
176	0x3d956a5a	0.072956756
177	0x3dc5cfa6	0.096587464
178	0x3dd4c96b	0.1038998
179	0x3c3ab70b	0.01139618
180	0xbd0b24f3	-0.033970784
181	0x3d810338	0.06299442
182	0xbc9f408c	-0.019439958
183	0x3db6be67	0.08923035
184	0xbc19b9b1	-0.009382651
185	0x3da74949	0.08168275
186	0xbcb2fe02	-0.021849636
187	0xbd260d66	-0.04054012
188	0x3cabed9c	0.020987324
189	0xbd1a37f4	-0.037651017
190	0xbd8e49e3	-0.069476865
191	0xbd91b289	-0.07114131
192	0x38e818bd	0.0001106723
193	0xbd26096a	-0.04053632
194	0x3dc10dd9	0.09426469
195	0x3d94d011	0.07266248
196	0xbd8b472a	-0.06800683
197	0x3d3439b9	0.04400036
198	0xbd9c5768	-0.07633859
199	0x3d3da58f	0.046300467
200	0x3d9b56ba	0.07584901
201	0xbd926947	-0.07148986
202	0xbd67a10a	-0.056550063
203	0xbc9ab7fd	-0.01888656
204	0x3c8ac3c8	0.016939059
205	0x3d8c4bb3	0.06850376
206	0xbce79672	-0.02826998
207	0xbbdf5a6d	-0.0068161995
208	0xbd86374b	-0.06553515
209	0xbca22e1b	-0.019797375
210	0x3dcd9e9b	0.10040017
211	0xbdab8b23	-0.083761476
212	0x3d181e33	0.037138175
213	0x3c819ef6	0.015822869
214	0x3d3b3b93	0.04571111
215	0xbd5ce66e	-0.053930692
216	0x3daf012b	0.08545145
217	0x3d811d00	0.063043594
218	0xbd72e082	-0.05929614
219	0xbda3ef15	-0.08004586
220	0xbbb2bf40	-0.0054549277
221	0xbd0b1835	-0.033958632
222	0x3c8622f7	0.016374094
223	0xbd9db33e	-0.07700203
224	0xbc9c892a	-0.019108374
225	0xbd3edbe1	-0.04659641
226	0xbd4a92eb	-0.04945652
227	0xbb6abbb2	-0.0035817442
228	0x3d90bd2d	0.070673324
229	0x3d6d24b1	0.05789632
230	0x3d140c45	0.036144514
231	0xbdbaa6ab	-0.09113821
232	0x3d853b30	0.0650543
233	0x3dac53aa	0.08414395
234	0xbd44a245	-0.048006315
235	0x3d4d31cd	0.05009632
236	0xbb0d15d4	-0.0021527903
237	0x3ccff753	0.025386488
238	0xbdb16436	-0.08661692
239	0x3d8e9e5d	0.06963799
240	0xbd848e8f	-0.064725034
241	0x3c10c553	0.008836108
242	0x3d823739	0.06358189
243	0x3d0f9b3a	0.035060145
244	0x3daca624	0.08430126
245	0xbd41368e	-0.047171168
246	0xbc878534	-0.016543008
247	0x3dabaeb3	0.083829306
248	0xbd68d2f7	-0.056841817
249	0xbd775c8d	-0.060390998
250	0xbce4d85f	-0.027935205
251	0x3dab7628	0.08372146
252	0xbcf9a09d	-0.030472094
253	0xbd2b7fae	-0.04186981
254	0x3cf33604	0.029688843
255	0x3d8b07d2	0.06788601

fc2.bias f4 [84]
0	0x3d4a9b37	0.04946443
1	0xbc2255d6	-0.00990816
2	0xbb8659d0	-0.004100062
3	0x3d5ce3a7	0.053928044
4	0x3d2a62a3	0.041597974
5	0x3e575ab3	0.21030693
6	0xbdacb9bf	-0.08433866
7	0xbda826a5	-0.08210496
8	0x3d6e58d5	0.058190186
9	0xbdb1fce2	-0.08690812
10	0x3e0361a2	0.12830213
11	0x3c87660c	0.016528152
12	0x3e0fb77d	0.14034839
13	0x3c55550b	0.013020764
14	0x3d089ae9	0.03335086
15	0xbb0fdb4f	-0.0021950786
16	0x3d4eb05f	0.05046117
17	0x3d9ddf7b	0.07708641
18	0x3defe45c	0.11713478
19	0xbda9fb94	-0.08299938
20	0x3e0b5384	0.13606077
21	0x3d126c39	0.03574774
22	0xbd0daecf	-0.03459054
23	0xbda39ffa	-0.079894975
24	0x3cd33042	0.025779847
25	0x3dc915d0	0.098186135
26	0xbce97a80	-0.028500795
27	0xbd241473	-0.040058564
28	0x3db250d0	0.0870682
29	0x3e2e0599	0.16994323
30	0xba4edb7f	-0.0007890984
31	0x3d5c29c6	0.053750776
32	0x3dadabb0	0.084800124
33	0x3d818a9f	0.06325268
34	0x3c1e866f	0.009675606
35	0x3d78443a	0.06061194
36	0x3bbab581	0.0056979065
37	0xbd57ce04	-0.052686706
38	0x3c4477be	0.011991439
39	0xbd490025	-0.049072403
40	0xb7f716bb	-2.945528e-05
41	0x3d56e3a1	0.052463178
42	0x3d61bec1	0.055113558
43	0x3e3b27fb	0.1827697
44	0x3e0eb130	0.13934779
45	0xbc587e29	-0.013213673
46	0x3ddd9041	0.1081853
47	0x3de8aceb	0.113611065
48	0x3dc3dd1c	0.09563658
49	0xbc994f68	-0.018714622
50	0x3e0154d6	0.12630019
51	0xbd8fac96	-0.0701534
52	0x3d9a1638	0.07523769
53	0x3e239254	0.15973788
54	0x3e10e14c	0.14148444
55	0x3e018600	0.12648773
56	0xbd2e0faf	-0.042495426
57	0x3d11c75f	0.035590526
58	0x3e267638	0.16256034
59	0xbd55367a	-0.052053906
60	0xbce587c6	-0.028018843
61	0xbd91921b	-0.071079455
62	0xbdb02062	-0.085999265
63	0xbd975626	-0.073894784
64	0x3cfef5c8	0.031123057
65	0x3dcfc3e7	0.10144787
66	0x3e1c07ea	0.15237394
67	0x3d3625be	0.044469588
68	0xbbac11c8	-0.005251143
69	0x3e2e9f1e	0.17052886
70	0xbdb909ef	-0.09035098
71	0x3e46436c	0.19361657
72	0x3d792d21	0.060834054
73	0x3d49fff8	0.049316376
74	0x3e099adc	0.1343798
75	0x3e2172a6	0.15766391
76	0xbdc2f525	-0.09519414
77	0x3ca559e7	0.02018447
78	0xbdbc05fc	-0.09180829
79	0x3ded1746	0.11576705
80	0x3c9dc1fd	0.01925754
81	0xbdb6e25b	-0.08929893
82	0x3dd238ed	0.10264764
83	0x3d93427c	0.07190415

fc3.weight f4 [2, 84]
0	0xbdeb2ea1	-0.11483503
1	0x3e1d419a	0.15357056
2	0x3bfbb107	0.0076810154
3	0xbc89b17f	-0.01680827
4	0xbd090320	-0.033450246
5	0x3e5dde29	0.21666779
6	0x3c16572e	0.009176059
7	0xbcb44def	-0.022009818
8	0xbe4ba324	-0.19886452
9	0xbdcc95fe	-0.09989546
10	0x3e192af0	0.14957786
11	0x3e61a488	0.2203542
12	0x3e2058c1	0.15658857
13	0x3d9e2002	0.07720949
14	0xbb1075d6	-0.0022042892
15	0xbd823e79	-0.06359572
16	0x3d9c5ca8	0.0763486
17	0x3da7ebc7	0.08199268
18	0x3e39a28a	0.1812841
19	0xbcaeb5f9	-0.021327006
20	0xbe92b16a	-0.2865098
21	0x3dcfbd4e	0.10143529
22	0xbb937f08	-0.0045012273
23	0xbbce66a0	-0.006298855
24	0xbe89d18c	-0.26917684
25	0xbe1fc14d	-0.15601082
26	0xbda4d2e9	-0.080480404
27	0x3d596be8	0.053081423
28	0x3d886a72	0.06660928
29	0x3e4927b2	0.19644049
30	0xbdcdfcf4	-0.100580126
31	0xbeabc107	-0.33545706
32	0x3e52e145	0.20593746
33	0xbe53e34b	-0.20692174
34	0xbd81881f	-0.06324791
35	0x3cf9d6d2	0.030497942
36	0x3dac2e6b	0.08407291
37	0x3dd2ef50	0.102995515
38	0xbd8af5bb	-0.067851506
39	0x3cffd199	0.031227874
40	0xbd8bf720	-0.06834245
41	0x3e57f2d5	0.21088727
42	0xbd9a715d	-0.075411536
43	0x3ea03957	0.31293747
44	0x3daaf9eb	0.08348449
45	0x3d1aa55a	0.037755348
46	0x3e1ee10e	0.15515539
47	0xbe911bca	-0.28341514
48	0x3e044284	0.12915999
49	0x3d601c2b	0.054714363
50	0x3e7a3615	0.24434693
51	0x3cf9112f	0.030403702
52	0xbe786419	-0.24256934
53	0x3e1deb16	0.1542171
54	0x3ea0b72e	0.31389755
55	0x3e41a5b2	0.18910864
56	0x3d0eb540	0.034840822
57	0xbd29a8fd	-0.041420925
58	0x3deb0cbd	0.11477039
59	0x3d2cbaa6	0.04217019
60	0xbc67a16e	-0.014137609
61	0xbdbb3e15	-0.091427006
62	0xbc84aa52	-0.016194496
63	0x3e13ab77	0.14420877
64	0xbd8728e9	-0.065996
65	0x3d5ab153	0.053391766
66	0x3e948b75	0.29012647
67	0x3ceaf1ad	0.028679693
68	0x3dbeed7f	0.093226425
69	0x3e8a7383	0.27041253
70	0x3d492c59	0.04911456
71	0x3e8b46a2	0.27202326
72	0xbe3c896b	-0.18411796
73	0x3cbc6896	0.02299909
74	0x3dfe5a36	0.1241955
75	0xbee2e0da	-0.44312173
76	0xbe2293f2	-0.15876749
77	0x3dc3028c	0.0952197
78	0xbd8435d6	-0.06455581
79	0x3e0c0679	0.13674344
80	0xbe953c99	-0.29147795
81	0x3dc7759f	0.09739231
82	0x3daaa5e4	0.083324224
83	0x3da29261	0.07938076
84	0x3d35346e	0.044239454
85	0xbde9ac3e	-0.11409806
86	0x3b7cda2a	0.0038582184
87	0x3ccb8ac8	0.02484645
88	0xbdef7432	-0.11692084
89	0xbe3afedf	-0.18261288
90	0x3c9392c9	0.018014329
91	0x3d4f9fe4	0.050689593
92	0x3e10851a	0.14113274
93	0x3d8062ba	0.062688306
94	0xbe04f35a	-0.12983456
95	0xbdefd9a0	-0.117114305
96	0xbe35e950	-0.17764783
97	0x3b829076	0.0039845062
98	0xbd7d9745	-0.06191184
99	0x3d92546d	0.07145009
100	0x3be7c531	0.0070730676
101	0xbda3eb20	-0.08003831
102	0xbe294501	-0.16530229
103	0xbdc89533	-0.097940825
104	0x3e808aa5	0.25105777
105	0x3d6e28fc	0.058144554
106	0xbdc7a03e	-0.09747361
107	0xbbb0e12e	-0.0053979373
108	0x3e3f7762	0.18697885
109	0x3e3ef92f	0.18649743
110	0x3cd8c3e9	0.026460605
111	0x3d39996d	0.045312334
112	0xbca0e6f3	-0.019641375
113	0xbe86cbf8	-0.2632749
114	0x3d43011f	0.04760849
115	0x3e0aaac0	0.13541698
116	0xbe4bda3a	-0.19907466
117	0x3da5cde6	0.08095913
118	0x3d9b921e	0.07596229
119	0x3d9db670	0.07700813
120	0x3dee49a9	0.11635143
121	0x3dc60999	0.09669799
122	0xbdcb5ecd	-0.09930191
123	0xbd390831	-0.045173828
124	0x3d069a7a	0.032862164
125	0xbdbcb3a2	-0.0921395
126	0x3e612f04	0.21990591
127	0xbeacd6e0	-0.33757687
128	0xbdc037c2	-0.09385635
129	0x3c398259	0.011322581
130	0xbdf0decd	-0.11761246
131	0x3e511c9c	0.2042107
132	0xbe7541bb	-0.23950855
133	0x3db97b59	0.0905673
134	0xbe27ba87	-0.16379748
135	0xbe096eb0	-0.1342113
136	0x3e929860	0.28631878
137	0xbdf767eb	-0.12080368
138	0xbe7d3f08	-0.24731076
139	0xbdfdb82d	-0.12388644
140	0xbc9b7aea	-0.018979508
141	0xbd53384b	-0.051567357
142	0xbe10b0b5	-0.14129908
143	0xbdf040ef	-0.11731135
144	0xbc6223c3	-0.013802472
145	0xbc8bfbbb	-0.017087808
146	0xbdbd9dac	-0.09258589
147	0xbd9ce6e2	-0.07661225
148	0x3dd845bf	0.10560178
149	0xbe1a61ea	-0.15076414
150	0xbea1edca	-0.3162673
151	0xbdd854cb	-0.10563048
152	0xbd08a401	-0.03335953
153	0xbe74083f	-0.2383127
154	0x3dcbe54f	0.099558465
155	0xbe7a838d	-0.24464245
156	0x3e603bff	0.21897887
157	0x3df6105c	0.12014839
158	0xbe4d7edb	-0.20067923
159	0x3e9899bd	0.29804793
160	0x3e1fb739	0.15597238
161	0x3c7367ff	0.014856338
162	0xbd9e5a5a	-0.07732077
163	0xbe3f90af	-0.18707536
164	0x3ebf91d9	0.3741596
165	0x3d773520	0.0603534
166	0xbd30e085	-0.04318287
167	0xbe2379f9	-0.15964498

fc3.bias f4 [2]
0	0x3e2de19b	0.16980593
1	0xbdf36ba2	-0.11885764
